…
The value is the same before and after calling `init_weights` of EncoderDecoder  

decode_head.align.conv.weight - torch.Size([1024, 1024, 1, 1]): 
Initialized by user-defined `init_weights` in ConvModule  

decode_head.align.gn.weight - torch.Size([1024]): 
The value is the same before and after calling `init_weights` of EncoderDecoder  

decode_head.align.gn.bias - torch.Size([1024]): 
The value is the same before and after calling `init_weights` of EncoderDecoder  
2022-11-29 12:56:09,817 - mmseg - INFO - EncoderDecoder(
  (backbone): MSCAN(
    (patch_embed1): StemConv(
      (proj): Sequential(
        (0): Conv2d(3, 32, kernel_size=(3, 3), stride=(2, 2), padding=(1, 1))
        (1): _BatchNormXd(32, eps=1e-05, momentum=0.1, affine=True, track_running_stats=True)
        (2): GELU()
        (3): Conv2d(32, 64, kernel_size=(3, 3), stride=(2, 2), padding=(1, 1))
        (4): _BatchNormXd(64, eps=1e-05, momentum=0.1, affine=True, track_running_stats=True)
      )
    )
    (block1): ModuleList(
      (0): Block(
        (norm1): _BatchNormXd(64, eps=1e-05, momentum=0.1, affine=True, track_running_stats=True)
        (attn): SpatialAttention(
          (proj_1): Conv2d(64, 64, kernel_size=(1, 1), stride=(1, 1))
          (activation): GELU()
          (spatial_gating_unit): AttentionModule(
            (conv0): Conv2d(64, 64, kernel_size=(5, 5), stride=(1, 1), padding=(2, 2), groups=64)
            (conv0_1): Conv2d(64, 64, kernel_size=(1, 7), stride=(1, 1), padding=(0, 3), groups=64)
            (conv0_2): Conv2d(64, 64, kernel_size=(7, 1), stride=(1, 1), padding=(3, 0), groups=64)
            (conv1_1): Conv2d(64, 64, kernel_size=(1, 11), stride=(1, 1), padding=(0, 5), groups=64)
            (conv1_2): Conv2d(64, 64, kernel_size=(11, 1), stride=(1, 1), padding=(5, 0), groups=64)
            (conv2_1): Conv2d(64, 64, kernel_size=(1, 21), stride=(1, 1), padding=(0, 10), groups=64)
            (conv2_2): Conv2d(64, 64, kernel_size=(21, 1), stride=(1, 1), padding=(10, 0), groups=64)
            (conv3): Conv2d(64, 64, kernel_size=(1, 1), stride=(1, 1))
          )
          (proj_2): Conv2d(64, 64, kernel_size=(1, 1), stride=(1, 1))
        )
        (drop_path): Identity()
        (norm2): _BatchNormXd(64, eps=1e-05, momentum=0.1, affine=True, track_running_stats=True)
        (mlp): Mlp(
          (fc1): Conv2d(64, 512, kernel_size=(1, 1), stride=(1, 1))
          (dwconv): DWConv(
            (dwconv): Conv2d(512, 512, kernel_size=(3, 3), stride=(1, 1), padding=(1, 1), groups=512)
          )
          (act): GELU()
          (fc2): Conv2d(512, 64, kernel_size=(1, 1), stride=(1, 1))
          (drop): Dropout(p=0.0, inplace=False)
        )
      )
      (1): Block(
        (norm1): _BatchNormXd(64, eps=1e-05, momentum=0.1, affine=True, track_running_stats=True)
        (attn): SpatialAttention(
          (proj_1): Conv2d(64, 64, kernel_size=(1, 1), stride=(1, 1))
          (activation): GELU()
          (spatial_gating_unit): AttentionModule(
            (conv0): Conv2d(64, 64, kernel_size=(5, 5), stride=(1, 1), padding=(2, 2), groups=64)
            (conv0_1): Conv2d(64, 64, kernel_size=(1, 7), stride=(1, 1), padding=(0, 3), groups=64)
            (conv0_2): Conv2d(64, 64, kernel_size=(7, 1), stride=(1, 1), padding=(3, 0), groups=64)
            (conv1_1): Conv2d(64, 64, kernel_size=(1, 11), stride=(1, 1), padding=(0, 5), groups=64)
            (conv1_2): Conv2d(64, 64, kernel_size=(11, 1), stride=(1, 1), padding=(5, 0), groups=64)
            (conv2_1): Conv2d(64, 64, kernel_size=(1, 21), stride=(1, 1), padding=(0, 10), groups=64)
            (conv2_2): Conv2d(64, 64, kernel_size=(21, 1), stride=(1, 1), padding=(10, 0), groups=64)
            (conv3): Conv2d(64, 64, kernel_size=(1, 1), stride=(1, 1))
          )
          (proj_2): Conv2d(64, 64, kernel_size=(1, 1), stride=(1, 1))
        )
        (drop_path): DropPath()
        (norm2): _BatchNormXd(64, eps=1e-05, momentum=0.1, affine=True, track_running_stats=True)
        (mlp): Mlp(
          (fc1): Conv2d(64, 512, kernel_size=(1, 1), stride=(1, 1))
          (dwconv): DWConv(
            (dwconv): Conv2d(512, 512, kernel_size=(3, 3), stride=(1, 1), padding=(1, 1), groups=512)
          )
          (act): GELU()
          (fc2): Conv2d(512, 64, kernel_size=(1, 1), stride=(1, 1))
          (drop): Dropout(p=0.0, inplace=False)
        )
      )
      (2): Block(
        (norm1): _BatchNormXd(64, eps=1e-05, momentum=0.1, affine=True, track_running_stats=True)
        (attn): SpatialAttention(
          (proj_1): Conv2d(64, 64, kernel_size=(1, 1), stride=(1, 1))
          (activation): GELU()
          (spatial_gating_unit): AttentionModule(
            (conv0): Conv2d(64, 64, kernel_size=(5, 5), stride=(1, 1), padding=(2, 2), groups=64)
            (conv0_1): Conv2d(64, 64, kernel_size=(1, 7), stride=(1, 1), padding=(0, 3), groups=64)
            (conv0_2): Conv2d(64, 64, kernel_size=(7, 1), stride=(1, 1), padding=(3, 0), groups=64)
            (conv1_1): Conv2d(64, 64, kernel_size=(1, 11), stride=(1, 1), padding=(0, 5), groups=64)
            (conv1_2): Conv2d(64, 64, kernel_size=(11, 1), stride=(1, 1), padding=(5, 0), groups=64)
            (conv2_1): Conv2d(64, 64, kernel_size=(1, 21), stride=(1, 1), padding=(0, 10), groups=64)
            (conv2_2): Conv2d(64, 64, kernel_size=(21, 1), stride=(1, 1), padding=(10, 0), groups=64)
            (conv3): Conv2d(64, 64, kernel_size=(1, 1), stride=(1, 1))
          )
          (proj_2): Conv2d(64, 64, kernel_size=(1, 1), stride=(1, 1))
        )
        (drop_path): DropPath()
        (norm2): _BatchNormXd(64, eps=1e-05, momentum=0.1, affine=True, track_running_stats=True)
        (mlp): Mlp(
          (fc1): Conv2d(64, 512, kernel_size=(1, 1), stride=(1, 1))
          (dwconv): DWConv(
            (dwconv): Conv2d(512, 512, kernel_size=(3, 3), stride=(1, 1), padding=(1, 1), groups=512)
          )
          (act): GELU()
          (fc2): Conv2d(512, 64, kernel_size=(1, 1), stride=(1, 1))
          (drop): Dropout(p=0.0, inplace=False)
        )
      )
    )
    (norm1): LayerNorm((64,), eps=1e-05, elementwise_affine=True)
    (patch_embed2): OverlapPatchEmbed(
      (proj): Conv2d(64, 128, kernel_size=(3, 3), stride=(2, 2), padding=(1, 1))
      (norm): _BatchNormXd(128, eps=1e-05, momentum=0.1, affine=True, track_running_stats=True)
    )
    (block2): ModuleList(
      (0): Block(
        (norm1): _BatchNormXd(128, eps=1e-05, momentum=0.1, affine=True, track_running_stats=True)
        (attn): SpatialAttention(
          (proj_1): Conv2d(128, 128, kernel_size=(1, 1), stride=(1, 1))
          (activation): GELU()
          (spatial_gating_unit): AttentionModule(
            (conv0): Conv2d(128, 128, kernel_size=(5, 5), stride=(1, 1), padding=(2, 2), groups=128)
            (conv0_1): Conv2d(128, 128, kernel_size=(1, 7), stride=(1, 1), padding=(0, 3), groups=128)
            (conv0_2): Conv2d(128, 128, kernel_size=(7, 1), stride=(1, 1), padding=(3, 0), groups=128)
            (conv1_1): Conv2d(128, 128, kernel_size=(1, 11), stride=(1, 1), padding=(0, 5), groups=128)
            (conv1_2): Conv2d(128, 128, kernel_size=(11, 1), stride=(1, 1), padding=(5, 0), groups=128)
            (conv2_1): Conv2d(128, 128, kernel_size=(1, 21), stride=(1, 1), padding=(0, 10), groups=128)
            (conv2_2): Conv2d(128, 128, kernel_size=(21, 1), stride=(1, 1), padding=(10, 0), groups=128)
            (conv3): Conv2d(128, 128, kernel_size=(1, 1), stride=(1, 1))
          )
          (proj_2): Conv2d(128, 128, kernel_size=(1, 1), stride=(1, 1))
        )
        (drop_path): DropPath()
        (norm2): _BatchNormXd(128, eps=1e-05, momentum=0.1, affine=True, track_running_stats=True)
        (mlp): Mlp(
          (fc1): Conv2d(128, 1024, kernel_size=(1, 1), stride=(1, 1))
          (dwconv): DWConv(
            (dwconv): Conv2d(1024, 1024, kernel_size=(3, 3), stride=(1, 1), padding=(1, 1), groups=1024)
          )
          (act): GELU()
          (fc2): Conv2d(1024, 128, kernel_size=(1, 1), stride=(1, 1))
          (drop): Dropout(p=0.0, inplace=False)
        )
      )
      (1): Block(
        (norm1): _BatchNormXd(128, eps=1e-05, momentum=0.1, affine=True, track_running_stats=True)
        (attn): SpatialAttention(
          (proj_1): Conv2d(128, 128, kernel_size=(1, 1), stride=(1, 1))
          (activation): GELU()
          (spatial_gating_unit): AttentionModule(
            (conv0): Conv2d(128, 128, kernel_size=(5, 5), stride=(1, 1), padding=(2, 2), groups=128)
            (conv0_1): Conv2d(128, 128, kernel_size=(1, 7), stride=(1, 1), padding=(0, 3), groups=128)
            (conv0_2): Conv2d(128, 128, kernel_size=(7, 1), stride=(1, 1), padding=(3, 0), groups=128)
            (conv1_1): Conv2d(128, 128, kernel_size=(1, 11), stride=(1, 1), padding=(0, 5), groups=128)
            (conv1_2): Conv2d(128, 128, kernel_size=(11, 1), stride=(1, 1), padding=(5, 0), groups=128)
            (conv2_1): Conv2d(128, 128, kernel_size=(1, 21), stride=(1, 1), padding=(0, 10), groups=128)
            (conv2_2): Conv2d(128, 128, kernel_size=(21, 1), stride=(1, 1), padding=(10, 0), groups=128)
            (conv3): Conv2d(128, 128, kernel_size=(1, 1), stride=(1, 1))
          )
          (proj_2): Conv2d(128, 128, kernel_size=(1, 1), stride=(1, 1))
        )
        (drop_path): DropPath()
        (norm2): _BatchNormXd(128, eps=1e-05, momentum=0.1, affine=True, track_running_stats=True)
        (mlp): Mlp(
          (fc1): Conv2d(128, 1024, kernel_size=(1, 1), stride=(1, 1))
          (dwconv): DWConv(
            (dwconv): Conv2d(1024, 1024, kernel_size=(3, 3), stride=(1, 1), padding=(1, 1), groups=1024)
          )
          (act): GELU()
          (fc2): Conv2d(1024, 128, kernel_size=(1, 1), stride=(1, 1))
          (drop): Dropout(p=0.0, inplace=False)
        )
      )
      (2): Block(
        (norm1): _BatchNormXd(128, eps=1e-05, momentum=0.1, affine=True, track_running_stats=True)
        (attn): SpatialAttention(
          (proj_1): Conv2d(128, 128, kernel_size=(1, 1), stride=(1, 1))
          (activation): GELU()
          (spatial_gating_unit): AttentionModule(
            (conv0): Conv2d(128, 128, kernel_size=(5, 5), stride=(1, 1), padding=(2, 2), groups=128)
            (conv0_1): Conv2d(128, 128, kernel_size=(1, 7), stride=(1, 1), padding=(0, 3), groups=128)
            (conv0_2): Conv2d(128, 128, kernel_size=(7, 1), stride=(1, 1), padding=(3, 0), groups=128)
            (conv1_1): Conv2d(128, 128, kernel_size=(1, 11), stride=(1, 1), padding=(0, 5), groups=128)
            (conv1_2): Conv2d(128, 128, kernel_size=(11, 1), stride=(1, 1), padding=(5, 0), groups=128)
            (conv2_1): Conv2d(128, 128, kernel_size=(1, 21), stride=(1, 1), padding=(0, 10), groups=128)
            (conv2_2): Conv2d(128, 128, kernel_size=(21, 1), stride=(1, 1), padding=(10, 0), groups=128)
            (conv3): Conv2d(128, 128, kernel_size=(1, 1), stride=(1, 1))
          )
          (proj_2): Conv2d(128, 128, kernel_size=(1, 1), stride=(1, 1))
        )
        (drop_path): DropPath()
        (norm2): _BatchNormXd(128, eps=1e-05, momentum=0.1, affine=True, track_running_stats=True)
        (mlp): Mlp(
          (fc1): Conv2d(128, 1024, kernel_size=(1, 1), stride=(1, 1))
          (dwconv): DWConv(
            (dwconv): Conv2d(1024, 1024, kernel_size=(3, 3), stride=(1, 1), padding=(1, 1), groups=1024)
          )
          (act): GELU()
          (fc2): Conv2d(1024, 128, kernel_size=(1, 1), stride=(1, 1))
          (drop): Dropout(p=0.0, inplace=False)
        )
      )
      (3): Block(
        (norm1): _BatchNormXd(128, eps=1e-05, momentum=0.1, affine=True, track_running_stats=True)
        (attn): SpatialAttention(
          (proj_1): Conv2d(128, 128, kernel_size=(1, 1), stride=(1, 1))
          (activation): GELU()
          (spatial_gating_unit): AttentionModule(
            (conv0): Conv2d(128, 128, kernel_size=(5, 5), stride=(1, 1), padding=(2, 2), groups=128)
            (conv0_1): Conv2d(128, 128, kernel_size=(1, 7), stride=(1, 1), padding=(0, 3), groups=128)
            (conv0_2): Conv2d(128, 128, kernel_size=(7, 1), stride=(1, 1), padding=(3, 0), groups=128)
            (conv1_1): Conv2d(128, 128, kernel_size=(1, 11), stride=(1, 1), padding=(0, 5), groups=128)
            (conv1_2): Conv2d(128, 128, kernel_size=(11, 1), stride=(1, 1), padding=(5, 0), groups=128)
            (conv2_1): Conv2d(128, 128, kernel_size=(1, 21), stride=(1, 1), padding=(0, 10), groups=128)
            (conv2_2): Conv2d(128, 128, kernel_size=(21, 1), stride=(1, 1), padding=(10, 0), groups=128)
            (conv3): Conv2d(128, 128, kernel_size=(1, 1), stride=(1, 1))
          )
          (proj_2): Conv2d(128, 128, kernel_size=(1, 1), stride=(1, 1))
        )
        (drop_path): DropPath()
        (norm2): _BatchNormXd(128, eps=1e-05, momentum=0.1, affine=True, track_running_stats=True)
        (mlp): Mlp(
          (fc1): Conv2d(128, 1024, kernel_size=(1, 1), stride=(1, 1))
          (dwconv): DWConv(
            (dwconv): Conv2d(1024, 1024, kernel_size=(3, 3), stride=(1, 1), padding=(1, 1), groups=1024)
          )
          (act): GELU()
          (fc2): Conv2d(1024, 128, kernel_size=(1, 1), stride=(1, 1))
          (drop): Dropout(p=0.0, inplace=False)
        )
      )
      (4): Block(
        (norm1): _BatchNormXd(128, eps=1e-05, momentum=0.1, affine=True, track_running_stats=True)
        (attn): SpatialAttention(
          (proj_1): Conv2d(128, 128, kernel_size=(1, 1), stride=(1, 1))
          (activation): GELU()
          (spatial_gating_unit): AttentionModule(
            (conv0): Conv2d(128, 128, kernel_size=(5, 5), stride=(1, 1), padding=(2, 2), groups=128)
            (conv0_1): Conv2d(128, 128, kernel_size=(1, 7), stride=(1, 1), padding=(0, 3), groups=128)
            (conv0_2): Conv2d(128, 128, kernel_size=(7, 1), stride=(1, 1), padding=(3, 0), groups=128)
            (conv1_1): Conv2d(128, 128, kernel_size=(1, 11), stride=(1, 1), padding=(0, 5), groups=128)
            (conv1_2): Conv2d(128, 128, kernel_size=(11, 1), stride=(1, 1), padding=(5, 0), groups=128)
            (conv2_1): Conv2d(128, 128, kernel_size=(1, 21), stride=(1, 1), padding=(0, 10), groups=128)
            (conv2_2): Conv2d(128, 128, kernel_size=(21, 1), stride=(1, 1), padding=(10, 0), groups=128)
            (conv3): Conv2d(128, 128, kernel_size=(1, 1), stride=(1, 1))
          )
          (proj_2): Conv2d(128, 128, kernel_size=(1, 1), stride=(1, 1))
        )
        (drop_path): DropPath()
        (norm2): _BatchNormXd(128, eps=1e-05, momentum=0.1, affine=True, track_running_stats=True)
        (mlp): Mlp(
          (fc1): Conv2d(128, 1024, kernel_size=(1, 1), stride=(1, 1))
          (dwconv): DWConv(
            (dwconv): Conv2d(1024, 1024, kernel_size=(3, 3), stride=(1, 1), padding=(1, 1), groups=1024)
          )
          (act): GELU()
          (fc2): Conv2d(1024, 128, kernel_size=(1, 1), stride=(1, 1))
          (drop): Dropout(p=0.0, inplace=False)
        )
      )
    )
    (norm2): LayerNorm((128,), eps=1e-05, elementwise_affine=True)
    (patch_embed3): OverlapPatchEmbed(
      (proj): Conv2d(128, 320, kernel_size=(3, 3), stride=(2, 2), padding=(1, 1))
      (norm): _BatchNormXd(320, eps=1e-05, momentum=0.1, affine=True, track_running_stats=True)
    )
    (block3): ModuleList(
      (0): Block(
        (norm1): _BatchNormXd(320, eps=1e-05, momentum=0.1, affine=True, track_running_stats=True)
        (attn): SpatialAttention(
          (proj_1): Conv2d(320, 320, kernel_size=(1, 1), stride=(1, 1))
          (activation): GELU()
          (spatial_gating_unit): AttentionModule(
            (conv0): Conv2d(320, 320, kernel_size=(5, 5), stride=(1, 1), padding=(2, 2), groups=320)
            (conv0_1): Conv2d(320, 320, kernel_size=(1, 7), stride=(1, 1), padding=(0, 3), groups=320)
            (conv0_2): Conv2d(320, 320, kernel_size=(7, 1), stride=(1, 1), padding=(3, 0), groups=320)
            (conv1_1): Conv2d(320, 320, kernel_size=(1, 11), stride=(1, 1), padding=(0, 5), groups=320)
            (conv1_2): Conv2d(320, 320, kernel_size=(11, 1), stride=(1, 1), padding=(5, 0), groups=320)
            (conv2_1): Conv2d(320, 320, kernel_size=(1, 21), stride=(1, 1), padding=(0, 10), groups=320)
            (conv2_2): Conv2d(320, 320, kernel_size=(21, 1), stride=(1, 1), padding=(10, 0), groups=320)
            (conv3): Conv2d(320, 320, kernel_size=(1, 1), stride=(1, 1))
          )
          (proj_2): Conv2d(320, 320, kernel_size=(1, 1), stride=(1, 1))
        )
        (drop_path): DropPath()
        (norm2): _BatchNormXd(320, eps=1e-05, momentum=0.1, affine=True, track_running_stats=True)
        (mlp): Mlp(
          (fc1): Conv2d(320, 1280, kernel_size=(1, 1), stride=(1, 1))
          (dwconv): DWConv(
            (dwconv): Conv2d(1280, 1280, kernel_size=(3, 3), stride=(1, 1), padding=(1, 1), groups=1280)
          )
          (act): GELU()
          (fc2): Conv2d(1280, 320, kernel_size=(1, 1), stride=(1, 1))
          (drop): Dropout(p=0.0, inplace=False)
        )
      )
      (1): Block(
        (norm1): _BatchNormXd(320, eps=1e-05, momentum=0.1, affine=True, track_running_stats=True)
        (attn): SpatialAttention(
          (proj_1): Conv2d(320, 320, kernel_size=(1, 1), stride=(1, 1))
          (activation): GELU()
          (spatial_gating_unit): AttentionModule(
            (conv0): Conv2d(320, 320, kernel_size=(5, 5), stride=(1, 1), padding=(2, 2), groups=320)
            (conv0_1): Conv2d(320, 320, kernel_size=(1, 7), stride=(1, 1), padding=(0, 3), groups=320)
            (conv0_2): Conv2d(320, 320, kernel_size=(7, 1), stride=(1, 1), padding=(3, 0), groups=320)
            (conv1_1): Conv2d(320, 320, kernel_size=(1, 11), stride=(1, 1), padding=(0, 5), groups=320)
            (conv1_2): Conv2d(320, 320, kernel_size=(11, 1), stride=(1, 1), padding=(5, 0), groups=320)
            (conv2_1): Conv2d(320, 320, kernel_size=(1, 21), stride=(1, 1), padding=(0, 10), groups=320)
            (conv2_2): Conv2d(320, 320, kernel_size=(21, 1), stride=(1, 1), padding=(10, 0), groups=320)
            (conv3): Conv2d(320, 320, kernel_size=(1, 1), stride=(1, 1))
          )
          (proj_2): Conv2d(320, 320, kernel_size=(1, 1), stride=(1, 1))
        )
        (drop_path): DropPath()
        (norm2): _BatchNormXd(320, eps=1e-05, momentum=0.1, affine=True, track_running_stats=True)
        (mlp): Mlp(
          (fc1): Conv2d(320, 1280, kernel_size=(1, 1), stride=(1, 1))
          (dwconv): DWConv(
            (dwconv): Conv2d(1280, 1280, kernel_size=(3, 3), stride=(1, 1), padding=(1, 1), groups=1280)
          )
          (act): GELU()
          (fc2): Conv2d(1280, 320, kernel_size=(1, 1), stride=(1, 1))
          (drop): Dropout(p=0.0, inplace=False)
        )
      )
      (2): Block(
        (norm1): _BatchNormXd(320, eps=1e-05, momentum=0.1, affine=True, track_running_stats=True)
        (attn): SpatialAttention(
          (proj_1): Conv2d(320, 320, kernel_size=(1, 1), stride=(1, 1))
          (activation): GELU()
          (spatial_gating_unit): AttentionModule(
            (conv0): Conv2d(320, 320, kernel_size=(5, 5), stride=(1, 1), padding=(2, 2), groups=320)
            (conv0_1): Conv2d(320, 320, kernel_size=(1, 7), stride=(1, 1), padding=(0, 3), groups=320)
            (conv0_2): Conv2d(320, 320, kernel_size=(7, 1), stride=(1, 1), padding=(3, 0), groups=320)
            (conv1_1): Conv2d(320, 320, kernel_size=(1, 11), stride=(1, 1), padding=(0, 5), groups=320)
            (conv1_2): Conv2d(320, 320, kernel_size=(11, 1), stride=(1, 1), padding=(5, 0), groups=320)
            (conv2_1): Conv2d(320, 320, kernel_size=(1, 21), stride=(1, 1), padding=(0, 10), groups=320)
            (conv2_2): Conv2d(320, 320, kernel_size=(21, 1), stride=(1, 1), padding=(10, 0), groups=320)
            (conv3): Conv2d(320, 320, kernel_size=(1, 1), stride=(1, 1))
          )
          (proj_2): Conv2d(320, 320, kernel_size=(1, 1), stride=(1, 1))
        )
        (drop_path): DropPath()
        (norm2): _BatchNormXd(320, eps=1e-05, momentum=0.1, affine=True, track_running_stats=True)
        (mlp): Mlp(
          (fc1): Conv2d(320, 1280, kernel_size=(1, 1), stride=(1, 1))
          (dwconv): DWConv(
            (dwconv): Conv2d(1280, 1280, kernel_size=(3, 3), stride=(1, 1), padding=(1, 1), groups=1280)
          )
          (act): GELU()
          (fc2): Conv2d(1280, 320, kernel_size=(1, 1), stride=(1, 1))
          (drop): Dropout(p=0.0, inplace=False)
        )
      )
      (3): Block(
        (norm1): _BatchNormXd(320, eps=1e-05, momentum=0.1, affine=True, track_running_stats=True)
        (attn): SpatialAttention(
          (proj_1): Conv2d(320, 320, kernel_size=(1, 1), stride=(1, 1))
          (activation): GELU()
          (spatial_gating_unit): AttentionModule(
            (conv0): Conv2d(320, 320, kernel_size=(5, 5), stride=(1, 1), padding=(2, 2), groups=320)
            (conv0_1): Conv2d(320, 320, kernel_size=(1, 7), stride=(1, 1), padding=(0, 3), groups=320)
            (conv0_2): Conv2d(320, 320, kernel_size=(7, 1), stride=(1, 1), padding=(3, 0), groups=320)
            (conv1_1): Conv2d(320, 320, kernel_size=(1, 11), stride=(1, 1), padding=(0, 5), groups=320)
            (conv1_2): Conv2d(320, 320, kernel_size=(11, 1), stride=(1, 1), padding=(5, 0), groups=320)
            (conv2_1): Conv2d(320, 320, kernel_size=(1, 21), stride=(1, 1), padding=(0, 10), groups=320)
            (conv2_2): Conv2d(320, 320, kernel_size=(21, 1), stride=(1, 1), padding=(10, 0), groups=320)
            (conv3): Conv2d(320, 320, kernel_size=(1, 1), stride=(1, 1))
          )
          (proj_2): Conv2d(320, 320, kernel_size=(1, 1), stride=(1, 1))
        )
        (drop_path): DropPath()
        (norm2): _BatchNormXd(320, eps=1e-05, momentum=0.1, affine=True, track_running_stats=True)
        (mlp): Mlp(
          (fc1): Conv2d(320, 1280, kernel_size=(1, 1), stride=(1, 1))
          (dwconv): DWConv(
            (dwconv): Conv2d(1280, 1280, kernel_size=(3, 3), stride=(1, 1), padding=(1, 1), groups=1280)
          )
          (act): GELU()
          (fc2): Conv2d(1280, 320, kernel_size=(1, 1), stride=(1, 1))
          (drop): Dropout(p=0.0, inplace=False)
        )
      )
      (4): Block(
        (norm1): _BatchNormXd(320, eps=1e-05, momentum=0.1, affine=True, track_running_stats=True)
        (attn): SpatialAttention(
          (proj_1): Conv2d(320, 320, kernel_size=(1, 1), stride=(1, 1))
          (activation): GELU()
          (spatial_gating_unit): AttentionModule(
            (conv0): Conv2d(320, 320, kernel_size=(5, 5), stride=(1, 1), padding=(2, 2), groups=320)
            (conv0_1): Conv2d(320, 320, kernel_size=(1, 7), stride=(1, 1), padding=(0, 3), groups=320)
            (conv0_2): Conv2d(320, 320, kernel_size=(7, 1), stride=(1, 1), padding=(3, 0), groups=320)
            (conv1_1): Conv2d(320, 320, kernel_size=(1, 11), stride=(1, 1), padding=(0, 5), groups=320)
            (conv1_2): Conv2d(320, 320, kernel_size=(11, 1), stride=(1, 1), padding=(5, 0), groups=320)
            (conv2_1): Conv2d(320, 320, kernel_size=(1, 21), stride=(1, 1), padding=(0, 10), groups=320)
            (conv2_2): Conv2d(320, 320, kernel_size=(21, 1), stride=(1, 1), padding=(10, 0), groups=320)
            (conv3): Conv2d(320, 320, kernel_size=(1, 1), stride=(1, 1))
          )
          (proj_2): Conv2d(320, 320, kernel_size=(1, 1), stride=(1, 1))
        )
        (drop_path): DropPath()
        (norm2): _BatchNormXd(320, eps=1e-05, momentum=0.1, affine=True, track_running_stats=True)
        (mlp): Mlp(
          (fc1): Conv2d(320, 1280, kernel_size=(1, 1), stride=(1, 1))
          (dwconv): DWConv(
            (dwconv): Conv2d(1280, 1280, kernel_size=(3, 3), stride=(1, 1), padding=(1, 1), groups=1280)
          )
          (act): GELU()
          (fc2): Conv2d(1280, 320, kernel_size=(1, 1), stride=(1, 1))
          (drop): Dropout(p=0.0, inplace=False)
        )
      )
      (5): Block(
        (norm1): _BatchNormXd(320, eps=1e-05, momentum=0.1, affine=True, track_running_stats=True)
        (attn): SpatialAttention(
          (proj_1): Conv2d(320, 320, kernel_size=(1, 1), stride=(1, 1))
          (activation): GELU()
          (spatial_gating_unit): AttentionModule(
            (conv0): Conv2d(320, 320, kernel_size=(5, 5), stride=(1, 1), padding=(2, 2), groups=320)
            (conv0_1): Conv2d(320, 320, kernel_size=(1, 7), stride=(1, 1), padding=(0, 3), groups=320)
            (conv0_2): Conv2d(320, 320, kernel_size=(7, 1), stride=(1, 1), padding=(3, 0), groups=320)
            (conv1_1): Conv2d(320, 320, kernel_size=(1, 11), stride=(1, 1), padding=(0, 5), groups=320)
            (conv1_2): Conv2d(320, 320, kernel_size=(11, 1), stride=(1, 1), padding=(5, 0), groups=320)
            (conv2_1): Conv2d(320, 320, kernel_size=(1, 21), stride=(1, 1), padding=(0, 10), groups=320)
            (conv2_2): Conv2d(320, 320, kernel_size=(21, 1), stride=(1, 1), padding=(10, 0), groups=320)
            (conv3): Conv2d(320, 320, kernel_size=(1, 1), stride=(1, 1))
          )
          (proj_2): Conv2d(320, 320, kernel_size=(1, 1), stride=(1, 1))
        )
        (drop_path): DropPath()
        (norm2): _BatchNormXd(320, eps=1e-05, momentum=0.1, affine=True, track_running_stats=True)
        (mlp): Mlp(
          (fc1): Conv2d(320, 1280, kernel_size=(1, 1), stride=(1, 1))
          (dwconv): DWConv(
            (dwconv): Conv2d(1280, 1280, kernel_size=(3, 3), stride=(1, 1), padding=(1, 1), groups=1280)
          )
          (act): GELU()
          (fc2): Conv2d(1280, 320, kernel_size=(1, 1), stride=(1, 1))
          (drop): Dropout(p=0.0, inplace=False)
        )
      )
      (6): Block(
        (norm1): _BatchNormXd(320, eps=1e-05, momentum=0.1, affine=True, track_running_stats=True)
        (attn): SpatialAttention(
          (proj_1): Conv2d(320, 320, kernel_size=(1, 1), stride=(1, 1))
          (activation): GELU()
          (spatial_gating_unit): AttentionModule(
            (conv0): Conv2d(320, 320, kernel_size=(5, 5), stride=(1, 1), padding=(2, 2), groups=320)
            (conv0_1): Conv2d(320, 320, kernel_size=(1, 7), stride=(1, 1), padding=(0, 3), groups=320)
            (conv0_2): Conv2d(320, 320, kernel_size=(7, 1), stride=(1, 1), padding=(3, 0), groups=320)
            (conv1_1): Conv2d(320, 320, kernel_size=(1, 11), stride=(1, 1), padding=(0, 5), groups=320)
            (conv1_2): Conv2d(320, 320, kernel_size=(11, 1), stride=(1, 1), padding=(5, 0), groups=320)
            (conv2_1): Conv2d(320, 320, kernel_size=(1, 21), stride=(1, 1), padding=(0, 10), groups=320)
            (conv2_2): Conv2d(320, 320, kernel_size=(21, 1), stride=(1, 1), padding=(10, 0), groups=320)
            (conv3): Conv2d(320, 320, kernel_size=(1, 1), stride=(1, 1))
          )
          (proj_2): Conv2d(320, 320, kernel_size=(1, 1), stride=(1, 1))
        )
        (drop_path): DropPath()
        (norm2): _BatchNormXd(320, eps=1e-05, momentum=0.1, affine=True, track_running_stats=True)
        (mlp): Mlp(
          (fc1): Conv2d(320, 1280, kernel_size=(1, 1), stride=(1, 1))
          (dwconv): DWConv(
            (dwconv): Conv2d(1280, 1280, kernel_size=(3, 3), stride=(1, 1), padding=(1, 1), groups=1280)
          )
          (act): GELU()
          (fc2): Conv2d(1280, 320, kernel_size=(1, 1), stride=(1, 1))
          (drop): Dropout(p=0.0, inplace=False)
        )
      )
      (7): Block(
        (norm1): _BatchNormXd(320, eps=1e-05, momentum=0.1, affine=True, track_running_stats=True)
        (attn): SpatialAttention(
          (proj_1): Conv2d(320, 320, kernel_size=(1, 1), stride=(1, 1))
          (activation): GELU()
          (spatial_gating_unit): AttentionModule(
            (conv0): Conv2d(320, 320, kernel_size=(5, 5), stride=(1, 1), padding=(2, 2), groups=320)
            (conv0_1): Conv2d(320, 320, kernel_size=(1, 7), stride=(1, 1), padding=(0, 3), groups=320)
            (conv0_2): Conv2d(320, 320, kernel_size=(7, 1), stride=(1, 1), padding=(3, 0), groups=320)
            (conv1_1): Conv2d(320, 320, kernel_size=(1, 11), stride=(1, 1), padding=(0, 5), groups=320)
            (conv1_2): Conv2d(320, 320, kernel_size=(11, 1), stride=(1, 1), padding=(5, 0), groups=320)
            (conv2_1): Conv2d(320, 320, kernel_size=(1, 21), stride=(1, 1), padding=(0, 10), groups=320)
            (conv2_2): Conv2d(320, 320, kernel_size=(21, 1), stride=(1, 1), padding=(10, 0), groups=320)
            (conv3): Conv2d(320, 320, kernel_size=(1, 1), stride=(1, 1))
          )
          (proj_2): Conv2d(320, 320, kernel_size=(1, 1), stride=(1, 1))
        )
        (drop_path): DropPath()
        (norm2): _BatchNormXd(320, eps=1e-05, momentum=0.1, affine=True, track_running_stats=True)
        (mlp): Mlp(
          (fc1): Conv2d(320, 1280, kernel_size=(1, 1), stride=(1, 1))
          (dwconv): DWConv(
            (dwconv): Conv2d(1280, 1280, kernel_size=(3, 3), stride=(1, 1), padding=(1, 1), groups=1280)
          )
          (act): GELU()
          (fc2): Conv2d(1280, 320, kernel_size=(1, 1), stride=(1, 1))
          (drop): Dropout(p=0.0, inplace=False)
        )
      )
      (8): Block(
        (norm1): _BatchNormXd(320, eps=1e-05, momentum=0.1, affine=True, track_running_stats=True)
        (attn): SpatialAttention(
          (proj_1): Conv2d(320, 320, kernel_size=(1, 1), stride=(1, 1))
          (activation): GELU()
          (spatial_gating_unit): AttentionModule(
            (conv0): Conv2d(320, 320, kernel_size=(5, 5), stride=(1, 1), padding=(2, 2), groups=320)
            (conv0_1): Conv2d(320, 320, kernel_size=(1, 7), stride=(1, 1), padding=(0, 3), groups=320)
            (conv0_2): Conv2d(320, 320, kernel_size=(7, 1), stride=(1, 1), padding=(3, 0), groups=320)
            (conv1_1): Conv2d(320, 320, kernel_size=(1, 11), stride=(1, 1), padding=(0, 5), groups=320)
            (conv1_2): Conv2d(320, 320, kernel_size=(11, 1), stride=(1, 1), padding=(5, 0), groups=320)
            (conv2_1): Conv2d(320, 320, kernel_size=(1, 21), stride=(1, 1), padding=(0, 10), groups=320)
            (conv2_2): Conv2d(320, 320, kernel_size=(21, 1), stride=(1, 1), padding=(10, 0), groups=320)
            (conv3): Conv2d(320, 320, kernel_size=(1, 1), stride=(1, 1))
          )
          (proj_2): Conv2d(320, 320, kernel_size=(1, 1), stride=(1, 1))
        )
        (drop_path): DropPath()
        (norm2): _BatchNormXd(320, eps=1e-05, momentum=0.1, affine=True, track_running_stats=True)
        (mlp): Mlp(
          (fc1): Conv2d(320, 1280, kernel_size=(1, 1), stride=(1, 1))
          (dwconv): DWConv(
            (dwconv): Conv2d(1280, 1280, kernel_size=(3, 3), stride=(1, 1), padding=(1, 1), groups=1280)
          )
          (act): GELU()
          (fc2): Conv2d(1280, 320, kernel_size=(1, 1), stride=(1, 1))
          (drop): Dropout(p=0.0, inplace=False)
        )
      )
      (9): Block(
        (norm1): _BatchNormXd(320, eps=1e-05, momentum=0.1, affine=True, track_running_stats=True)
        (attn): SpatialAttention(
          (proj_1): Conv2d(320, 320, kernel_size=(1, 1), stride=(1, 1))
          (activation): GELU()
          (spatial_gating_unit): AttentionModule(
            (conv0): Conv2d(320, 320, kernel_size=(5, 5), stride=(1, 1), padding=(2, 2), groups=320)
            (conv0_1): Conv2d(320, 320, kernel_size=(1, 7), stride=(1, 1), padding=(0, 3), groups=320)
            (conv0_2): Conv2d(320, 320, kernel_size=(7, 1), stride=(1, 1), padding=(3, 0), groups=320)
            (conv1_1): Conv2d(320, 320, kernel_size=(1, 11), stride=(1, 1), padding=(0, 5), groups=320)
            (conv1_2): Conv2d(320, 320, kernel_size=(11, 1), stride=(1, 1), padding=(5, 0), groups=320)
            (conv2_1): Conv2d(320, 320, kernel_size=(1, 21), stride=(1, 1), padding=(0, 10), groups=320)
            (conv2_2): Conv2d(320, 320, kernel_size=(21, 1), stride=(1, 1), padding=(10, 0), groups=320)
            (conv3): Conv2d(320, 320, kernel_size=(1, 1), stride=(1, 1))
          )
          (proj_2): Conv2d(320, 320, kernel_size=(1, 1), stride=(1, 1))
        )
        (drop_path): DropPath()
        (norm2): _BatchNormXd(320, eps=1e-05, momentum=0.1, affine=True, track_running_stats=True)
        (mlp): Mlp(
          (fc1): Conv2d(320, 1280, kernel_size=(1, 1), stride=(1, 1))
          (dwconv): DWConv(
            (dwconv): Conv2d(1280, 1280, kernel_size=(3, 3), stride=(1, 1), padding=(1, 1), groups=1280)
          )
          (act): GELU()
          (fc2): Conv2d(1280, 320, kernel_size=(1, 1), stride=(1, 1))
          (drop): Dropout(p=0.0, inplace=False)
        )
      )
      (10): Block(
        (norm1): _BatchNormXd(320, eps=1e-05, momentum=0.1, affine=True, track_running_stats=True)
        (attn): SpatialAttention(
          (proj_1): Conv2d(320, 320, kernel_size=(1, 1), stride=(1, 1))
          (activation): GELU()
          (spatial_gating_unit): AttentionModule(
            (conv0): Conv2d(320, 320, kernel_size=(5, 5), stride=(1, 1), padding=(2, 2), groups=320)
            (conv0_1): Conv2d(320, 320, kernel_size=(1, 7), stride=(1, 1), padding=(0, 3), groups=320)
            (conv0_2): Conv2d(320, 320, kernel_size=(7, 1), stride=(1, 1), padding=(3, 0), groups=320)
            (conv1_1): Conv2d(320, 320, kernel_size=(1, 11), stride=(1, 1), padding=(0, 5), groups=320)
            (conv1_2): Conv2d(320, 320, kernel_size=(11, 1), stride=(1, 1), padding=(5, 0), groups=320)
            (conv2_1): Conv2d(320, 320, kernel_size=(1, 21), stride=(1, 1), padding=(0, 10), groups=320)
            (conv2_2): Conv2d(320, 320, kernel_size=(21, 1), stride=(1, 1), padding=(10, 0), groups=320)
            (conv3): Conv2d(320, 320, kernel_size=(1, 1), stride=(1, 1))
          )
          (proj_2): Conv2d(320, 320, kernel_size=(1, 1), stride=(1, 1))
        )
        (drop_path): DropPath()
        (norm2): _BatchNormXd(320, eps=1e-05, momentum=0.1, affine=True, track_running_stats=True)
        (mlp): Mlp(
          (fc1): Conv2d(320, 1280, kernel_size=(1, 1), stride=(1, 1))
          (dwconv): DWConv(
            (dwconv): Conv2d(1280, 1280, kernel_size=(3, 3), stride=(1, 1), padding=(1, 1), groups=1280)
          )
          (act): GELU()
          (fc2): Conv2d(1280, 320, kernel_size=(1, 1), stride=(1, 1))
          (drop): Dropout(p=0.0, inplace=False)
        )
      )
      (11): Block(
        (norm1): _BatchNormXd(320, eps=1e-05, momentum=0.1, affine=True, track_running_stats=True)
        (attn): SpatialAttention(
          (proj_1): Conv2d(320, 320, kernel_size=(1, 1), stride=(1, 1))
          (activation): GELU()
          (spatial_gating_unit): AttentionModule(
            (conv0): Conv2d(320, 320, kernel_size=(5, 5), stride=(1, 1), padding=(2, 2), groups=320)
            (conv0_1): Conv2d(320, 320, kernel_size=(1, 7), stride=(1, 1), padding=(0, 3), groups=320)
            (conv0_2): Conv2d(320, 320, kernel_size=(7, 1), stride=(1, 1), padding=(3, 0), groups=320)
            (conv1_1): Conv2d(320, 320, kernel_size=(1, 11), stride=(1, 1), padding=(0, 5), groups=320)
            (conv1_2): Conv2d(320, 320, kernel_size=(11, 1), stride=(1, 1), padding=(5, 0), groups=320)
            (conv2_1): Conv2d(320, 320, kernel_size=(1, 21), stride=(1, 1), padding=(0, 10), groups=320)
            (conv2_2): Conv2d(320, 320, kernel_size=(21, 1), stride=(1, 1), padding=(10, 0), groups=320)
            (conv3): Conv2d(320, 320, kernel_size=(1, 1), stride=(1, 1))
          )
          (proj_2): Conv2d(320, 320, kernel_size=(1, 1), stride=(1, 1))
        )
        (drop_path): DropPath()
        (norm2): _BatchNormXd(320, eps=1e-05, momentum=0.1, affine=True, track_running_stats=True)
        (mlp): Mlp(
          (fc1): Conv2d(320, 1280, kernel_size=(1, 1), stride=(1, 1))
          (dwconv): DWConv(
            (dwconv): Conv2d(1280, 1280, kernel_size=(3, 3), stride=(1, 1), padding=(1, 1), groups=1280)
          )
          (act): GELU()
          (fc2): Conv2d(1280, 320, kernel_size=(1, 1), stride=(1, 1))
          (drop): Dropout(p=0.0, inplace=False)
        )
      )
      (12): Block(
        (norm1): _BatchNormXd(320, eps=1e-05, momentum=0.1, affine=True, track_running_stats=True)
        (attn): SpatialAttention(
          (proj_1): Conv2d(320, 320, kernel_size=(1, 1), stride=(1, 1))
          (activation): GELU()
          (spatial_gating_unit): AttentionModule(
            (conv0): Conv2d(320, 320, kernel_size=(5, 5), stride=(1, 1), padding=(2, 2), groups=320)
            (conv0_1): Conv2d(320, 320, kernel_size=(1, 7), stride=(1, 1), padding=(0, 3), groups=320)
            (conv0_2): Conv2d(320, 320, kernel_size=(7, 1), stride=(1, 1), padding=(3, 0), groups=320)
            (conv1_1): Conv2d(320, 320, kernel_size=(1, 11), stride=(1, 1), padding=(0, 5), groups=320)
            (conv1_2): Conv2d(320, 320, kernel_size=(11, 1), stride=(1, 1), padding=(5, 0), groups=320)
            (conv2_1): Conv2d(320, 320, kernel_size=(1, 21), stride=(1, 1), padding=(0, 10), groups=320)
            (conv2_2): Conv2d(320, 320, kernel_size=(21, 1), stride=(1, 1), padding=(10, 0), groups=320)
            (conv3): Conv2d(320, 320, kernel_size=(1, 1), stride=(1, 1))
          )
          (proj_2): Conv2d(320, 320, kernel_size=(1, 1), stride=(1, 1))
        )
        (drop_path): DropPath()
        (norm2): _BatchNormXd(320, eps=1e-05, momentum=0.1, affine=True, track_running_stats=True)
        (mlp): Mlp(
          (fc1): Conv2d(320, 1280, kernel_size=(1, 1), stride=(1, 1))
          (dwconv): DWConv(
            (dwconv): Conv2d(1280, 1280, kernel_size=(3, 3), stride=(1, 1), padding=(1, 1), groups=1280)
          )
          (act): GELU()
          (fc2): Conv2d(1280, 320, kernel_size=(1, 1), stride=(1, 1))
          (drop): Dropout(p=0.0, inplace=False)
        )
      )
      (13): Block(
        (norm1): _BatchNormXd(320, eps=1e-05, momentum=0.1, affine=True, track_running_stats=True)
        (attn): SpatialAttention(
          (proj_1): Conv2d(320, 320, kernel_size=(1, 1), stride=(1, 1))
          (activation): GELU()
          (spatial_gating_unit): AttentionModule(
            (conv0): Conv2d(320, 320, kernel_size=(5, 5), stride=(1, 1), padding=(2, 2), groups=320)
            (conv0_1): Conv2d(320, 320, kernel_size=(1, 7), stride=(1, 1), padding=(0, 3), groups=320)
            (conv0_2): Conv2d(320, 320, kernel_size=(7, 1), stride=(1, 1), padding=(3, 0), groups=320)
            (conv1_1): Conv2d(320, 320, kernel_size=(1, 11), stride=(1, 1), padding=(0, 5), groups=320)
            (conv1_2): Conv2d(320, 320, kernel_size=(11, 1), stride=(1, 1), padding=(5, 0), groups=320)
            (conv2_1): Conv2d(320, 320, kernel_size=(1, 21), stride=(1, 1), padding=(0, 10), groups=320)
            (conv2_2): Conv2d(320, 320, kernel_size=(21, 1), stride=(1, 1), padding=(10, 0), groups=320)
            (conv3): Conv2d(320, 320, kernel_size=(1, 1), stride=(1, 1))
          )
          (proj_2): Conv2d(320, 320, kernel_size=(1, 1), stride=(1, 1))
        )
        (drop_path): DropPath()
        (norm2): _BatchNormXd(320, eps=1e-05, momentum=0.1, affine=True, track_running_stats=True)
        (mlp): Mlp(
          (fc1): Conv2d(320, 1280, kernel_size=(1, 1), stride=(1, 1))
          (dwconv): DWConv(
            (dwconv): Conv2d(1280, 1280, kernel_size=(3, 3), stride=(1, 1), padding=(1, 1), groups=1280)
          )
          (act): GELU()
          (fc2): Conv2d(1280, 320, kernel_size=(1, 1), stride=(1, 1))
          (drop): Dropout(p=0.0, inplace=False)
        )
      )
      (14): Block(
        (norm1): _BatchNormXd(320, eps=1e-05, momentum=0.1, affine=True, track_running_stats=True)
        (attn): SpatialAttention(
          (proj_1): Conv2d(320, 320, kernel_size=(1, 1), stride=(1, 1))
          (activation): GELU()
          (spatial_gating_unit): AttentionModule(
            (conv0): Conv2d(320, 320, kernel_size=(5, 5), stride=(1, 1), padding=(2, 2), groups=320)
            (conv0_1): Conv2d(320, 320, kernel_size=(1, 7), stride=(1, 1), padding=(0, 3), groups=320)
            (conv0_2): Conv2d(320, 320, kernel_size=(7, 1), stride=(1, 1), padding=(3, 0), groups=320)
            (conv1_1): Conv2d(320, 320, kernel_size=(1, 11), stride=(1, 1), padding=(0, 5), groups=320)
            (conv1_2): Conv2d(320, 320, kernel_size=(11, 1), stride=(1, 1), padding=(5, 0), groups=320)
            (conv2_1): Conv2d(320, 320, kernel_size=(1, 21), stride=(1, 1), padding=(0, 10), groups=320)
            (conv2_2): Conv2d(320, 320, kernel_size=(21, 1), stride=(1, 1), padding=(10, 0), groups=320)
            (conv3): Conv2d(320, 320, kernel_size=(1, 1), stride=(1, 1))
          )
          (proj_2): Conv2d(320, 320, kernel_size=(1, 1), stride=(1, 1))
        )
        (drop_path): DropPath()
        (norm2): _BatchNormXd(320, eps=1e-05, momentum=0.1, affine=True, track_running_stats=True)
        (mlp): Mlp(
          (fc1): Conv2d(320, 1280, kernel_size=(1, 1), stride=(1, 1))
          (dwconv): DWConv(
            (dwconv): Conv2d(1280, 1280, kernel_size=(3, 3), stride=(1, 1), padding=(1, 1), groups=1280)
          )
          (act): GELU()
          (fc2): Conv2d(1280, 320, kernel_size=(1, 1), stride=(1, 1))
          (drop): Dropout(p=0.0, inplace=False)
        )
      )
      (15): Block(
        (norm1): _BatchNormXd(320, eps=1e-05, momentum=0.1, affine=True, track_running_stats=True)
        (attn): SpatialAttention(
          (proj_1): Conv2d(320, 320, kernel_size=(1, 1), stride=(1, 1))
          (activation): GELU()
          (spatial_gating_unit): AttentionModule(
            (conv0): Conv2d(320, 320, kernel_size=(5, 5), stride=(1, 1), padding=(2, 2), groups=320)
            (conv0_1): Conv2d(320, 320, kernel_size=(1, 7), stride=(1, 1), padding=(0, 3), groups=320)
            (conv0_2): Conv2d(320, 320, kernel_size=(7, 1), stride=(1, 1), padding=(3, 0), groups=320)
            (conv1_1): Conv2d(320, 320, kernel_size=(1, 11), stride=(1, 1), padding=(0, 5), groups=320)
            (conv1_2): Conv2d(320, 320, kernel_size=(11, 1), stride=(1, 1), padding=(5, 0), groups=320)
            (conv2_1): Conv2d(320, 320, kernel_size=(1, 21), stride=(1, 1), padding=(0, 10), groups=320)
            (conv2_2): Conv2d(320, 320, kernel_size=(21, 1), stride=(1, 1), padding=(10, 0), groups=320)
            (conv3): Conv2d(320, 320, kernel_size=(1, 1), stride=(1, 1))
          )
          (proj_2): Conv2d(320, 320, kernel_size=(1, 1), stride=(1, 1))
        )
        (drop_path): DropPath()
        (norm2): _BatchNormXd(320, eps=1e-05, momentum=0.1, affine=True, track_running_stats=True)
        (mlp): Mlp(
          (fc1): Conv2d(320, 1280, kernel_size=(1, 1), stride=(1, 1))
          (dwconv): DWConv(
            (dwconv): Conv2d(1280, 1280, kernel_size=(3, 3), stride=(1, 1), padding=(1, 1), groups=1280)
          )
          (act): GELU()
          (fc2): Conv2d(1280, 320, kernel_size=(1, 1), stride=(1, 1))
          (drop): Dropout(p=0.0, inplace=False)
        )
      )
      (16): Block(
        (norm1): _BatchNormXd(320, eps=1e-05, momentum=0.1, affine=True, track_running_stats=True)
        (attn): SpatialAttention(
          (proj_1): Conv2d(320, 320, kernel_size=(1, 1), stride=(1, 1))
          (activation): GELU()
          (spatial_gating_unit): AttentionModule(
            (conv0): Conv2d(320, 320, kernel_size=(5, 5), stride=(1, 1), padding=(2, 2), groups=320)
            (conv0_1): Conv2d(320, 320, kernel_size=(1, 7), stride=(1, 1), padding=(0, 3), groups=320)
            (conv0_2): Conv2d(320, 320, kernel_size=(7, 1), stride=(1, 1), padding=(3, 0), groups=320)
            (conv1_1): Conv2d(320, 320, kernel_size=(1, 11), stride=(1, 1), padding=(0, 5), groups=320)
            (conv1_2): Conv2d(320, 320, kernel_size=(11, 1), stride=(1, 1), padding=(5, 0), groups=320)
            (conv2_1): Conv2d(320, 320, kernel_size=(1, 21), stride=(1, 1), padding=(0, 10), groups=320)
            (conv2_2): Conv2d(320, 320, kernel_size=(21, 1), stride=(1, 1), padding=(10, 0), groups=320)
            (conv3): Conv2d(320, 320, kernel_size=(1, 1), stride=(1, 1))
          )
          (proj_2): Conv2d(320, 320, kernel_size=(1, 1), stride=(1, 1))
        )
        (drop_path): DropPath()
        (norm2): _BatchNormXd(320, eps=1e-05, momentum=0.1, affine=True, track_running_stats=True)
        (mlp): Mlp(
          (fc1): Conv2d(320, 1280, kernel_size=(1, 1), stride=(1, 1))
          (dwconv): DWConv(
            (dwconv): Conv2d(1280, 1280, kernel_size=(3, 3), stride=(1, 1), padding=(1, 1), groups=1280)
          )
          (act): GELU()
          (fc2): Conv2d(1280, 320, kernel_size=(1, 1), stride=(1, 1))
          (drop): Dropout(p=0.0, inplace=False)
        )
      )
      (17): Block(
        (norm1): _BatchNormXd(320, eps=1e-05, momentum=0.1, affine=True, track_running_stats=True)
        (attn): SpatialAttention(
          (proj_1): Conv2d(320, 320, kernel_size=(1, 1), stride=(1, 1))
          (activation): GELU()
          (spatial_gating_unit): AttentionModule(
            (conv0): Conv2d(320, 320, kernel_size=(5, 5), stride=(1, 1), padding=(2, 2), groups=320)
            (conv0_1): Conv2d(320, 320, kernel_size=(1, 7), stride=(1, 1), padding=(0, 3), groups=320)
            (conv0_2): Conv2d(320, 320, kernel_size=(7, 1), stride=(1, 1), padding=(3, 0), groups=320)
            (conv1_1): Conv2d(320, 320, kernel_size=(1, 11), stride=(1, 1), padding=(0, 5), groups=320)
            (conv1_2): Conv2d(320, 320, kernel_size=(11, 1), stride=(1, 1), padding=(5, 0), groups=320)
            (conv2_1): Conv2d(320, 320, kernel_size=(1, 21), stride=(1, 1), padding=(0, 10), groups=320)
            (conv2_2): Conv2d(320, 320, kernel_size=(21, 1), stride=(1, 1), padding=(10, 0), groups=320)
            (conv3): Conv2d(320, 320, kernel_size=(1, 1), stride=(1, 1))
          )
          (proj_2): Conv2d(320, 320, kernel_size=(1, 1), stride=(1, 1))
        )
        (drop_path): DropPath()
        (norm2): _BatchNormXd(320, eps=1e-05, momentum=0.1, affine=True, track_running_stats=True)
        (mlp): Mlp(
          (fc1): Conv2d(320, 1280, kernel_size=(1, 1), stride=(1, 1))
          (dwconv): DWConv(
            (dwconv): Conv2d(1280, 1280, kernel_size=(3, 3), stride=(1, 1), padding=(1, 1), groups=1280)
          )
          (act): GELU()
          (fc2): Conv2d(1280, 320, kernel_size=(1, 1), stride=(1, 1))
          (drop): Dropout(p=0.0, inplace=False)
        )
      )
      (18): Block(
        (norm1): _BatchNormXd(320, eps=1e-05, momentum=0.1, affine=True, track_running_stats=True)
        (attn): SpatialAttention(
          (proj_1): Conv2d(320, 320, kernel_size=(1, 1), stride=(1, 1))
          (activation): GELU()
          (spatial_gating_unit): AttentionModule(
            (conv0): Conv2d(320, 320, kernel_size=(5, 5), stride=(1, 1), padding=(2, 2), groups=320)
            (conv0_1): Conv2d(320, 320, kernel_size=(1, 7), stride=(1, 1), padding=(0, 3), groups=320)
            (conv0_2): Conv2d(320, 320, kernel_size=(7, 1), stride=(1, 1), padding=(3, 0), groups=320)
            (conv1_1): Conv2d(320, 320, kernel_size=(1, 11), stride=(1, 1), padding=(0, 5), groups=320)
            (conv1_2): Conv2d(320, 320, kernel_size=(11, 1), stride=(1, 1), padding=(5, 0), groups=320)
            (conv2_1): Conv2d(320, 320, kernel_size=(1, 21), stride=(1, 1), padding=(0, 10), groups=320)
            (conv2_2): Conv2d(320, 320, kernel_size=(21, 1), stride=(1, 1), padding=(10, 0), groups=320)
            (conv3): Conv2d(320, 320, kernel_size=(1, 1), stride=(1, 1))
          )
          (proj_2): Conv2d(320, 320, kernel_size=(1, 1), stride=(1, 1))
        )
        (drop_path): DropPath()
        (norm2): _BatchNormXd(320, eps=1e-05, momentum=0.1, affine=True, track_running_stats=True)
        (mlp): Mlp(
          (fc1): Conv2d(320, 1280, kernel_size=(1, 1), stride=(1, 1))
          (dwconv): DWConv(
            (dwconv): Conv2d(1280, 1280, kernel_size=(3, 3), stride=(1, 1), padding=(1, 1), groups=1280)
          )
          (act): GELU()
          (fc2): Conv2d(1280, 320, kernel_size=(1, 1), stride=(1, 1))
          (drop): Dropout(p=0.0, inplace=False)
        )
      )
      (19): Block(
        (norm1): _BatchNormXd(320, eps=1e-05, momentum=0.1, affine=True, track_running_stats=True)
        (attn): SpatialAttention(
          (proj_1): Conv2d(320, 320, kernel_size=(1, 1), stride=(1, 1))
          (activation): GELU()
          (spatial_gating_unit): AttentionModule(
            (conv0): Conv2d(320, 320, kernel_size=(5, 5), stride=(1, 1), padding=(2, 2), groups=320)
            (conv0_1): Conv2d(320, 320, kernel_size=(1, 7), stride=(1, 1), padding=(0, 3), groups=320)
            (conv0_2): Conv2d(320, 320, kernel_size=(7, 1), stride=(1, 1), padding=(3, 0), groups=320)
            (conv1_1): Conv2d(320, 320, kernel_size=(1, 11), stride=(1, 1), padding=(0, 5), groups=320)
            (conv1_2): Conv2d(320, 320, kernel_size=(11, 1), stride=(1, 1), padding=(5, 0), groups=320)
            (conv2_1): Conv2d(320, 320, kernel_size=(1, 21), stride=(1, 1), padding=(0, 10), groups=320)
            (conv2_2): Conv2d(320, 320, kernel_size=(21, 1), stride=(1, 1), padding=(10, 0), groups=320)
            (conv3): Conv2d(320, 320, kernel_size=(1, 1), stride=(1, 1))
          )
          (proj_2): Conv2d(320, 320, kernel_size=(1, 1), stride=(1, 1))
        )
        (drop_path): DropPath()
        (norm2): _BatchNormXd(320, eps=1e-05, momentum=0.1, affine=True, track_running_stats=True)
        (mlp): Mlp(
          (fc1): Conv2d(320, 1280, kernel_size=(1, 1), stride=(1, 1))
          (dwconv): DWConv(
            (dwconv): Conv2d(1280, 1280, kernel_size=(3, 3), stride=(1, 1), padding=(1, 1), groups=1280)
          )
          (act): GELU()
          (fc2): Conv2d(1280, 320, kernel_size=(1, 1), stride=(1, 1))
          (drop): Dropout(p=0.0, inplace=False)
        )
      )
      (20): Block(
        (norm1): _BatchNormXd(320, eps=1e-05, momentum=0.1, affine=True, track_running_stats=True)
        (attn): SpatialAttention(
          (proj_1): Conv2d(320, 320, kernel_size=(1, 1), stride=(1, 1))
          (activation): GELU()
          (spatial_gating_unit): AttentionModule(
            (conv0): Conv2d(320, 320, kernel_size=(5, 5), stride=(1, 1), padding=(2, 2), groups=320)
            (conv0_1): Conv2d(320, 320, kernel_size=(1, 7), stride=(1, 1), padding=(0, 3), groups=320)
            (conv0_2): Conv2d(320, 320, kernel_size=(7, 1), stride=(1, 1), padding=(3, 0), groups=320)
            (conv1_1): Conv2d(320, 320, kernel_size=(1, 11), stride=(1, 1), padding=(0, 5), groups=320)
            (conv1_2): Conv2d(320, 320, kernel_size=(11, 1), stride=(1, 1), padding=(5, 0), groups=320)
            (conv2_1): Conv2d(320, 320, kernel_size=(1, 21), stride=(1, 1), padding=(0, 10), groups=320)
            (conv2_2): Conv2d(320, 320, kernel_size=(21, 1), stride=(1, 1), padding=(10, 0), groups=320)
            (conv3): Conv2d(320, 320, kernel_size=(1, 1), stride=(1, 1))
          )
          (proj_2): Conv2d(320, 320, kernel_size=(1, 1), stride=(1, 1))
        )
        (drop_path): DropPath()
        (norm2): _BatchNormXd(320, eps=1e-05, momentum=0.1, affine=True, track_running_stats=True)
        (mlp): Mlp(
          (fc1): Conv2d(320, 1280, kernel_size=(1, 1), stride=(1, 1))
          (dwconv): DWConv(
            (dwconv): Conv2d(1280, 1280, kernel_size=(3, 3), stride=(1, 1), padding=(1, 1), groups=1280)
          )
          (act): GELU()
          (fc2): Conv2d(1280, 320, kernel_size=(1, 1), stride=(1, 1))
          (drop): Dropout(p=0.0, inplace=False)
        )
      )
      (21): Block(
        (norm1): _BatchNormXd(320, eps=1e-05, momentum=0.1, affine=True, track_running_stats=True)
        (attn): SpatialAttention(
          (proj_1): Conv2d(320, 320, kernel_size=(1, 1), stride=(1, 1))
          (activation): GELU()
          (spatial_gating_unit): AttentionModule(
            (conv0): Conv2d(320, 320, kernel_size=(5, 5), stride=(1, 1), padding=(2, 2), groups=320)
            (conv0_1): Conv2d(320, 320, kernel_size=(1, 7), stride=(1, 1), padding=(0, 3), groups=320)
            (conv0_2): Conv2d(320, 320, kernel_size=(7, 1), stride=(1, 1), padding=(3, 0), groups=320)
            (conv1_1): Conv2d(320, 320, kernel_size=(1, 11), stride=(1, 1), padding=(0, 5), groups=320)
            (conv1_2): Conv2d(320, 320, kernel_size=(11, 1), stride=(1, 1), padding=(5, 0), groups=320)
            (conv2_1): Conv2d(320, 320, kernel_size=(1, 21), stride=(1, 1), padding=(0, 10), groups=320)
            (conv2_2): Conv2d(320, 320, kernel_size=(21, 1), stride=(1, 1), padding=(10, 0), groups=320)
            (conv3): Conv2d(320, 320, kernel_size=(1, 1), stride=(1, 1))
          )
          (proj_2): Conv2d(320, 320, kernel_size=(1, 1), stride=(1, 1))
        )
        (drop_path): DropPath()
        (norm2): _BatchNormXd(320, eps=1e-05, momentum=0.1, affine=True, track_running_stats=True)
        (mlp): Mlp(
          (fc1): Conv2d(320, 1280, kernel_size=(1, 1), stride=(1, 1))
          (dwconv): DWConv(
            (dwconv): Conv2d(1280, 1280, kernel_size=(3, 3), stride=(1, 1), padding=(1, 1), groups=1280)
          )
          (act): GELU()
          (fc2): Conv2d(1280, 320, kernel_size=(1, 1), stride=(1, 1))
          (drop): Dropout(p=0.0, inplace=False)
        )
      )
      (22): Block(
        (norm1): _BatchNormXd(320, eps=1e-05, momentum=0.1, affine=True, track_running_stats=True)
        (attn): SpatialAttention(
          (proj_1): Conv2d(320, 320, kernel_size=(1, 1), stride=(1, 1))
          (activation): GELU()
          (spatial_gating_unit): AttentionModule(
            (conv0): Conv2d(320, 320, kernel_size=(5, 5), stride=(1, 1), padding=(2, 2), groups=320)
            (conv0_1): Conv2d(320, 320, kernel_size=(1, 7), stride=(1, 1), padding=(0, 3), groups=320)
            (conv0_2): Conv2d(320, 320, kernel_size=(7, 1), stride=(1, 1), padding=(3, 0), groups=320)
            (conv1_1): Conv2d(320, 320, kernel_size=(1, 11), stride=(1, 1), padding=(0, 5), groups=320)
            (conv1_2): Conv2d(320, 320, kernel_size=(11, 1), stride=(1, 1), padding=(5, 0), groups=320)
            (conv2_1): Conv2d(320, 320, kernel_size=(1, 21), stride=(1, 1), padding=(0, 10), groups=320)
            (conv2_2): Conv2d(320, 320, kernel_size=(21, 1), stride=(1, 1), padding=(10, 0), groups=320)
            (conv3): Conv2d(320, 320, kernel_size=(1, 1), stride=(1, 1))
          )
          (proj_2): Conv2d(320, 320, kernel_size=(1, 1), stride=(1, 1))
        )
        (drop_path): DropPath()
        (norm2): _BatchNormXd(320, eps=1e-05, momentum=0.1, affine=True, track_running_stats=True)
        (mlp): Mlp(
          (fc1): Conv2d(320, 1280, kernel_size=(1, 1), stride=(1, 1))
          (dwconv): DWConv(
            (dwconv): Conv2d(1280, 1280, kernel_size=(3, 3), stride=(1, 1), padding=(1, 1), groups=1280)
          )
          (act): GELU()
          (fc2): Conv2d(1280, 320, kernel_size=(1, 1), stride=(1, 1))
          (drop): Dropout(p=0.0, inplace=False)
        )
      )
      (23): Block(
        (norm1): _BatchNormXd(320, eps=1e-05, momentum=0.1, affine=True, track_running_stats=True)
        (attn): SpatialAttention(
          (proj_1): Conv2d(320, 320, kernel_size=(1, 1), stride=(1, 1))
          (activation): GELU()
          (spatial_gating_unit): AttentionModule(
            (conv0): Conv2d(320, 320, kernel_size=(5, 5), stride=(1, 1), padding=(2, 2), groups=320)
            (conv0_1): Conv2d(320, 320, kernel_size=(1, 7), stride=(1, 1), padding=(0, 3), groups=320)
            (conv0_2): Conv2d(320, 320, kernel_size=(7, 1), stride=(1, 1), padding=(3, 0), groups=320)
            (conv1_1): Conv2d(320, 320, kernel_size=(1, 11), stride=(1, 1), padding=(0, 5), groups=320)
            (conv1_2): Conv2d(320, 320, kernel_size=(11, 1), stride=(1, 1), padding=(5, 0), groups=320)
            (conv2_1): Conv2d(320, 320, kernel_size=(1, 21), stride=(1, 1), padding=(0, 10), groups=320)
            (conv2_2): Conv2d(320, 320, kernel_size=(21, 1), stride=(1, 1), padding=(10, 0), groups=320)
            (conv3): Conv2d(320, 320, kernel_size=(1, 1), stride=(1, 1))
          )
          (proj_2): Conv2d(320, 320, kernel_size=(1, 1), stride=(1, 1))
        )
        (drop_path): DropPath()
        (norm2): _BatchNormXd(320, eps=1e-05, momentum=0.1, affine=True, track_running_stats=True)
        (mlp): Mlp(
          (fc1): Conv2d(320, 1280, kernel_size=(1, 1), stride=(1, 1))
          (dwconv): DWConv(
            (dwconv): Conv2d(1280, 1280, kernel_size=(3, 3), stride=(1, 1), padding=(1, 1), groups=1280)
          )
          (act): GELU()
          (fc2): Conv2d(1280, 320, kernel_size=(1, 1), stride=(1, 1))
          (drop): Dropout(p=0.0, inplace=False)
        )
      )
      (24): Block(
        (norm1): _BatchNormXd(320, eps=1e-05, momentum=0.1, affine=True, track_running_stats=True)
        (attn): SpatialAttention(
          (proj_1): Conv2d(320, 320, kernel_size=(1, 1), stride=(1, 1))
          (activation): GELU()
          (spatial_gating_unit): AttentionModule(
            (conv0): Conv2d(320, 320, kernel_size=(5, 5), stride=(1, 1), padding=(2, 2), groups=320)
            (conv0_1): Conv2d(320, 320, kernel_size=(1, 7), stride=(1, 1), padding=(0, 3), groups=320)
            (conv0_2): Conv2d(320, 320, kernel_size=(7, 1), stride=(1, 1), padding=(3, 0), groups=320)
            (conv1_1): Conv2d(320, 320, kernel_size=(1, 11), stride=(1, 1), padding=(0, 5), groups=320)
            (conv1_2): Conv2d(320, 320, kernel_size=(11, 1), stride=(1, 1), padding=(5, 0), groups=320)
            (conv2_1): Conv2d(320, 320, kernel_size=(1, 21), stride=(1, 1), padding=(0, 10), groups=320)
            (conv2_2): Conv2d(320, 320, kernel_size=(21, 1), stride=(1, 1), padding=(10, 0), groups=320)
            (conv3): Conv2d(320, 320, kernel_size=(1, 1), stride=(1, 1))
          )
          (proj_2): Conv2d(320, 320, kernel_size=(1, 1), stride=(1, 1))
        )
        (drop_path): DropPath()
        (norm2): _BatchNormXd(320, eps=1e-05, momentum=0.1, affine=True, track_running_stats=True)
        (mlp): Mlp(
          (fc1): Conv2d(320, 1280, kernel_size=(1, 1), stride=(1, 1))
          (dwconv): DWConv(
            (dwconv): Conv2d(1280, 1280, kernel_size=(3, 3), stride=(1, 1), padding=(1, 1), groups=1280)
          )
          (act): GELU()
          (fc2): Conv2d(1280, 320, kernel_size=(1, 1), stride=(1, 1))
          (drop): Dropout(p=0.0, inplace=False)
        )
      )
      (25): Block(
        (norm1): _BatchNormXd(320, eps=1e-05, momentum=0.1, affine=True, track_running_stats=True)
        (attn): SpatialAttention(
          (proj_1): Conv2d(320, 320, kernel_size=(1, 1), stride=(1, 1))
          (activation): GELU()
          (spatial_gating_unit): AttentionModule(
            (conv0): Conv2d(320, 320, kernel_size=(5, 5), stride=(1, 1), padding=(2, 2), groups=320)
            (conv0_1): Conv2d(320, 320, kernel_size=(1, 7), stride=(1, 1), padding=(0, 3), groups=320)
            (conv0_2): Conv2d(320, 320, kernel_size=(7, 1), stride=(1, 1), padding=(3, 0), groups=320)
            (conv1_1): Conv2d(320, 320, kernel_size=(1, 11), stride=(1, 1), padding=(0, 5), groups=320)
            (conv1_2): Conv2d(320, 320, kernel_size=(11, 1), stride=(1, 1), padding=(5, 0), groups=320)
            (conv2_1): Conv2d(320, 320, kernel_size=(1, 21), stride=(1, 1), padding=(0, 10), groups=320)
            (conv2_2): Conv2d(320, 320, kernel_size=(21, 1), stride=(1, 1), padding=(10, 0), groups=320)
            (conv3): Conv2d(320, 320, kernel_size=(1, 1), stride=(1, 1))
          )
          (proj_2): Conv2d(320, 320, kernel_size=(1, 1), stride=(1, 1))
        )
        (drop_path): DropPath()
        (norm2): _BatchNormXd(320, eps=1e-05, momentum=0.1, affine=True, track_running_stats=True)
        (mlp): Mlp(
          (fc1): Conv2d(320, 1280, kernel_size=(1, 1), stride=(1, 1))
          (dwconv): DWConv(
            (dwconv): Conv2d(1280, 1280, kernel_size=(3, 3), stride=(1, 1), padding=(1, 1), groups=1280)
          )
          (act): GELU()
          (fc2): Conv2d(1280, 320, kernel_size=(1, 1), stride=(1, 1))
          (drop): Dropout(p=0.0, inplace=False)
        )
      )
      (26): Block(
        (norm1): _BatchNormXd(320, eps=1e-05, momentum=0.1, affine=True, track_running_stats=True)
        (attn): SpatialAttention(
          (proj_1): Conv2d(320, 320, kernel_size=(1, 1), stride=(1, 1))
          (activation): GELU()
          (spatial_gating_unit): AttentionModule(
            (conv0): Conv2d(320, 320, kernel_size=(5, 5), stride=(1, 1), padding=(2, 2), groups=320)
            (conv0_1): Conv2d(320, 320, kernel_size=(1, 7), stride=(1, 1), padding=(0, 3), groups=320)
            (conv0_2): Conv2d(320, 320, kernel_size=(7, 1), stride=(1, 1), padding=(3, 0), groups=320)
            (conv1_1): Conv2d(320, 320, kernel_size=(1, 11), stride=(1, 1), padding=(0, 5), groups=320)
            (conv1_2): Conv2d(320, 320, kernel_size=(11, 1), stride=(1, 1), padding=(5, 0), groups=320)
            (conv2_1): Conv2d(320, 320, kernel_size=(1, 21), stride=(1, 1), padding=(0, 10), groups=320)
            (conv2_2): Conv2d(320, 320, kernel_size=(21, 1), stride=(1, 1), padding=(10, 0), groups=320)
            (conv3): Conv2d(320, 320, kernel_size=(1, 1), stride=(1, 1))
          )
          (proj_2): Conv2d(320, 320, kernel_size=(1, 1), stride=(1, 1))
        )
        (drop_path): DropPath()
        (norm2): _BatchNormXd(320, eps=1e-05, momentum=0.1, affine=True, track_running_stats=True)
        (mlp): Mlp(
          (fc1): Conv2d(320, 1280, kernel_size=(1, 1), stride=(1, 1))
          (dwconv): DWConv(
            (dwconv): Conv2d(1280, 1280, kernel_size=(3, 3), stride=(1, 1), padding=(1, 1), groups=1280)
          )
          (act): GELU()
          (fc2): Conv2d(1280, 320, kernel_size=(1, 1), stride=(1, 1))
          (drop): Dropout(p=0.0, inplace=False)
        )
      )
    )
    (norm3): LayerNorm((320,), eps=1e-05, elementwise_affine=True)
    (patch_embed4): OverlapPatchEmbed(
      (proj): Conv2d(320, 512, kernel_size=(3, 3), stride=(2, 2), padding=(1, 1))
      (norm): _BatchNormXd(512, eps=1e-05, momentum=0.1, affine=True, track_running_stats=True)
    )
    (block4): ModuleList(
      (0): Block(
        (norm1): _BatchNormXd(512, eps=1e-05, momentum=0.1, affine=True, track_running_stats=True)
        (attn): SpatialAttention(
          (proj_1): Conv2d(512, 512, kernel_size=(1, 1), stride=(1, 1))
          (activation): GELU()
          (spatial_gating_unit): AttentionModule(
            (conv0): Conv2d(512, 512, kernel_size=(5, 5), stride=(1, 1), padding=(2, 2), groups=512)
            (conv0_1): Conv2d(512, 512, kernel_size=(1, 7), stride=(1, 1), padding=(0, 3), groups=512)
            (conv0_2): Conv2d(512, 512, kernel_size=(7, 1), stride=(1, 1), padding=(3, 0), groups=512)
            (conv1_1): Conv2d(512, 512, kernel_size=(1, 11), stride=(1, 1), padding=(0, 5), groups=512)
            (conv1_2): Conv2d(512, 512, kernel_size=(11, 1), stride=(1, 1), padding=(5, 0), groups=512)
            (conv2_1): Conv2d(512, 512, kernel_size=(1, 21), stride=(1, 1), padding=(0, 10), groups=512)
            (conv2_2): Conv2d(512, 512, kernel_size=(21, 1), stride=(1, 1), padding=(10, 0), groups=512)
            (conv3): Conv2d(512, 512, kernel_size=(1, 1), stride=(1, 1))
          )
          (proj_2): Conv2d(512, 512, kernel_size=(1, 1), stride=(1, 1))
        )
        (drop_path): DropPath()
        (norm2): _BatchNormXd(512, eps=1e-05, momentum=0.1, affine=True, track_running_stats=True)
        (mlp): Mlp(
          (fc1): Conv2d(512, 2048, kernel_size=(1, 1), stride=(1, 1))
          (dwconv): DWConv(
            (dwconv): Conv2d(2048, 2048, kernel_size=(3, 3), stride=(1, 1), padding=(1, 1), groups=2048)
          )
          (act): GELU()
          (fc2): Conv2d(2048, 512, kernel_size=(1, 1), stride=(1, 1))
          (drop): Dropout(p=0.0, inplace=False)
        )
      )
      (1): Block(
        (norm1): _BatchNormXd(512, eps=1e-05, momentum=0.1, affine=True, track_running_stats=True)
        (attn): SpatialAttention(
          (proj_1): Conv2d(512, 512, kernel_size=(1, 1), stride=(1, 1))
          (activation): GELU()
          (spatial_gating_unit): AttentionModule(
            (conv0): Conv2d(512, 512, kernel_size=(5, 5), stride=(1, 1), padding=(2, 2), groups=512)
            (conv0_1): Conv2d(512, 512, kernel_size=(1, 7), stride=(1, 1), padding=(0, 3), groups=512)
            (conv0_2): Conv2d(512, 512, kernel_size=(7, 1), stride=(1, 1), padding=(3, 0), groups=512)
            (conv1_1): Conv2d(512, 512, kernel_size=(1, 11), stride=(1, 1), padding=(0, 5), groups=512)
            (conv1_2): Conv2d(512, 512, kernel_size=(11, 1), stride=(1, 1), padding=(5, 0), groups=512)
            (conv2_1): Conv2d(512, 512, kernel_size=(1, 21), stride=(1, 1), padding=(0, 10), groups=512)
            (conv2_2): Conv2d(512, 512, kernel_size=(21, 1), stride=(1, 1), padding=(10, 0), groups=512)
            (conv3): Conv2d(512, 512, kernel_size=(1, 1), stride=(1, 1))
          )
          (proj_2): Conv2d(512, 512, kernel_size=(1, 1), stride=(1, 1))
        )
        (drop_path): DropPath()
        (norm2): _BatchNormXd(512, eps=1e-05, momentum=0.1, affine=True, track_running_stats=True)
        (mlp): Mlp(
          (fc1): Conv2d(512, 2048, kernel_size=(1, 1), stride=(1, 1))
          (dwconv): DWConv(
            (dwconv): Conv2d(2048, 2048, kernel_size=(3, 3), stride=(1, 1), padding=(1, 1), groups=2048)
          )
          (act): GELU()
          (fc2): Conv2d(2048, 512, kernel_size=(1, 1), stride=(1, 1))
          (drop): Dropout(p=0.0, inplace=False)
        )
      )
      (2): Block(
        (norm1): _BatchNormXd(512, eps=1e-05, momentum=0.1, affine=True, track_running_stats=True)
        (attn): SpatialAttention(
          (proj_1): Conv2d(512, 512, kernel_size=(1, 1), stride=(1, 1))
          (activation): GELU()
          (spatial_gating_unit): AttentionModule(
            (conv0): Conv2d(512, 512, kernel_size=(5, 5), stride=(1, 1), padding=(2, 2), groups=512)
            (conv0_1): Conv2d(512, 512, kernel_size=(1, 7), stride=(1, 1), padding=(0, 3), groups=512)
            (conv0_2): Conv2d(512, 512, kernel_size=(7, 1), stride=(1, 1), padding=(3, 0), groups=512)
            (conv1_1): Conv2d(512, 512, kernel_size=(1, 11), stride=(1, 1), padding=(0, 5), groups=512)
            (conv1_2): Conv2d(512, 512, kernel_size=(11, 1), stride=(1, 1), padding=(5, 0), groups=512)
            (conv2_1): Conv2d(512, 512, kernel_size=(1, 21), stride=(1, 1), padding=(0, 10), groups=512)
            (conv2_2): Conv2d(512, 512, kernel_size=(21, 1), stride=(1, 1), padding=(10, 0), groups=512)
            (conv3): Conv2d(512, 512, kernel_size=(1, 1), stride=(1, 1))
          )
          (proj_2): Conv2d(512, 512, kernel_size=(1, 1), stride=(1, 1))
        )
        (drop_path): DropPath()
        (norm2): _BatchNormXd(512, eps=1e-05, momentum=0.1, affine=True, track_running_stats=True)
        (mlp): Mlp(
          (fc1): Conv2d(512, 2048, kernel_size=(1, 1), stride=(1, 1))
          (dwconv): DWConv(
            (dwconv): Conv2d(2048, 2048, kernel_size=(3, 3), stride=(1, 1), padding=(1, 1), groups=2048)
          )
          (act): GELU()
          (fc2): Conv2d(2048, 512, kernel_size=(1, 1), stride=(1, 1))
          (drop): Dropout(p=0.0, inplace=False)
        )
      )
    )
    (norm4): LayerNorm((512,), eps=1e-05, elementwise_affine=True)
  )
  init_cfg={'type': 'Pretrained', 'checkpoint': 'pretrained/mscan_l.pth'}
  (decode_head): LightHamHead(
    input_transform=multiple_select, ignore_index=255, align_corners=False
    (loss_decode): CrossEntropyLoss(avg_non_ignore=False)
    (conv_seg): Conv2d(1024, 5, kernel_size=(1, 1), stride=(1, 1))
    (dropout): Dropout2d(p=0.1, inplace=False)
    (squeeze): ConvModule(
      (conv): Conv2d(960, 1024, kernel_size=(1, 1), stride=(1, 1), bias=False)
      (gn): GroupNorm(32, 1024, eps=1e-05, affine=True)
      (activate): ReLU(inplace=True)
    )
    (hamburger): Hamburger(
      (ham_in): ConvModule(
        (conv): Conv2d(1024, 1024, kernel_size=(1, 1), stride=(1, 1))
      )
      (ham): NMF2D()
      (ham_out): ConvModule(
        (conv): Conv2d(1024, 1024, kernel_size=(1, 1), stride=(1, 1), bias=False)
        (gn): GroupNorm(32, 1024, eps=1e-05, affine=True)
      )
    )
    (align): ConvModule(
      (conv): Conv2d(1024, 1024, kernel_size=(1, 1), stride=(1, 1), bias=False)
      (gn): GroupNorm(32, 1024, eps=1e-05, affine=True)
      (activate): ReLU(inplace=True)
    )
  )
  init_cfg={'type': 'Normal', 'std': 0.01, 'override': {'name': 'conv_seg'}}
)
2022-11-29 12:56:09,837 - mmseg - INFO - Loaded 933 images
2022-11-29 12:56:10,693 - mmseg - INFO - Loaded 1602 images
2022-11-29 12:56:10,694 - mmseg - INFO - Start running, host: yl407@dcc-carlsonlab-gpu-13, work_dir: /work/yl407/SegNeXt/work_dirs/segnext.large.512x512.landcover.40k_weight_sub
…
